…
        Saving scalers...
            Saved scaler-x to ./files/scalers/scaler-x
            Saved scaler-y to ./files/scalers/scaler-y
            Saved scaler-z to ./files/scalers/scaler-z
        Scalers saved.
    Data scaling complete.
    Saving processed data...
    Processed data saved to ./files/data/processed_data
PREPROCESSING COMPLETE.
GENERATING MODELS...
Model: "sequential_1"
_________________________________________________________________
Layer (type)                 Output Shape              Param #   
=================================================================
conv1d_1 (Conv1D)            (None, 1017, 256)         6400      
_________________________________________________________________
conv1d_2 (Conv1D)            (None, 1010, 256)         524544    
_________________________________________________________________
conv1d_3 (Conv1D)            (None, 1003, 256)         524544    
_________________________________________________________________
max_pooling1d_1 (MaxPooling1 (None, 125, 256)          0         
_________________________________________________________________
dropout_1 (Dropout)          (None, 125, 256)          0         
_________________________________________________________________
conv1d_4 (Conv1D)            (None, 120, 256)          393472    
_________________________________________________________________
conv1d_5 (Conv1D)            (None, 115, 256)          393472    
_________________________________________________________________
conv1d_6 (Conv1D)            (None, 110, 256)          393472    
_________________________________________________________________
max_pooling1d_2 (MaxPooling1 (None, 18, 256)           0         
_________________________________________________________________
dropout_2 (Dropout)          (None, 18, 256)           0         
_________________________________________________________________
conv1d_7 (Conv1D)            (None, 15, 256)           262400    
_________________________________________________________________
conv1d_8 (Conv1D)            (None, 12, 256)           262400    
_________________________________________________________________
conv1d_9 (Conv1D)            (None, 9, 256)            262400    
_________________________________________________________________
max_pooling1d_3 (MaxPooling1 (None, 2, 256)            0         
_________________________________________________________________
dropout_3 (Dropout)          (None, 2, 256)            0         
_________________________________________________________________
flatten_1 (Flatten)          (None, 512)               0         
_________________________________________________________________
dense_1 (Dense)              (None, 256)               131328    
_________________________________________________________________
dense_2 (Dense)              (None, 256)               65792     
_________________________________________________________________
dropout_4 (Dropout)          (None, 256)               0         
_________________________________________________________________
dense_3 (Dense)              (None, 14)                3598      
=================================================================
Total params: 3,223,822
Trainable params: 3,223,822
Non-trainable params: 0
_________________________________________________________________
MODEL GENERATION COMPLETE.
EVALUATING MODELS...
    Training/testing models...
        Current Model: CNN
Train on 587 samples, validate on 126 samples
Epoch 1/256
 - 41s - loss: 23.7977 - acc: 0.0971 - val_loss: 23.6201 - val_acc: 0.0873
…
